…
preds = Dense(len(macronum), activation='softmax')(l_dense)

model = Model(sequence_input, preds)
model.compile(loss='categorical_crossentropy',
              optimizer='rmsprop',
              metrics=['acc'])

print("Simplified convolutional neural network")
model.summary()
cp=ModelCheckpoint('model_cnn.hdf5',monitor='val_acc',verbose=1,save_best_only=True)
Simplified convolutional neural network
_________________________________________________________________
Layer (type)                 Output Shape              Param #   
=================================================================
input_4 (InputLayer)         (None, 1000)              0         
_________________________________________________________________
embedding_1 (Embedding)      (None, 1000, 100)         93300     
_________________________________________________________________
conv1d_10 (Conv1D)           (None, 996, 128)          64128     
_________________________________________________________________
max_pooling1d_10 (MaxPooling (None, 199, 128)          0         
_________________________________________________________________
conv1d_11 (Conv1D)           (None, 195, 128)          82048     
_________________________________________________________________
max_pooling1d_11 (MaxPooling (None, 39, 128)           0         
_________________________________________________________________
conv1d_12 (Conv1D)           (None, 35, 128)           82048     
_________________________________________________________________
max_pooling1d_12 (MaxPooling (None, 1, 128)            0         
_________________________________________________________________
flatten_4 (Flatten)          (None, 128)               0         
_________________________________________________________________
dense_7 (Dense)              (None, 128)               16512     
_________________________________________________________________
dense_8 (Dense)              (None, 17)                2193      
=================================================================
Total params: 340,229
Trainable params: 340,229
Non-trainable params: 0
_________________________________________________________________
In [62]:
history=model.fit(x_train, y_train, validation_data=(x_val, y_val),epochs=15, batch_size=2,callbacks=[cp])
Train on 80 samples, validate on 20 samples
Epoch 1/15
80/80 [==============================] - 4s 49ms/step - loss: 2.6623 - acc: 0.2500 - val_loss: 2.3584 - val_acc: 0.2500
…
